runs/DeepDTAF_20200818104105_33927/best_model.pt (torch_old, 655561 bytes, 128 tensors)

smi_embed.weight f4 [64, 128]
0.22839808 -0.1302625 0.6693378 -0.62969005 -0.090575516 1.0228487 -0.040493757 -0.37682912
-0.8162705 0.57043374 0.29523194 -0.69117606 -0.13561302 0.21204618 1.1066446 -0.14498606
-0.21123235 -1.2996193 -0.2279382 0.16066207 0.58481205 0.82872814 0.18248032 0.33914107
-0.015673773 0.1815454 0.07025194 -0.28523424 -0.78346324 -0.24454992 -0.3819887 0.070229694
0.33615917 -0.19720997 0.9306396 -0.2344085 -0.39983106 0.77566355 0.64743817 -0.16866109
-0.21142806 0.1880177 -0.30978328 0.51428413 -0.7148742 0.5239504 -0.5511274 -0.9606138
-0.5643004 -0.23907618 -0.13624336 0.7199939 -0.11360684 -0.2470189 -0.053642664 0.19368033
-0.085562475 -0.74962443 1.4979972 -0.4229614 -0.51242405 0.35990098 0.7586808 -0.066122405
0.08240267 -0.02659428 -0.18630283 0.070850894 -1.4777935 -0.28278545 0.78241175 -0.10697717
-0.03170688 -0.63572824 -0.43844563 -0.4339196 0.94709444 0.92323005 0.24610545 0.5903301
-0.35797003 -0.121218674 -0.658312 1.1608123 -0.56456476 0.055166874 -0.4647999 0.22787736
0.18738195 0.24943362 -0.54198915 0.41835445 0.9159193 0.13451682 -0.122835785 -0.8641003
1.0775878 -0.080774456 -0.07253241 -0.7234504 -0.12441975 -0.18757758 -0.2885834 0.18056571
-0.6192786 0.4732242 -0.011308304 -0.5926761 -0.27093905 -1.1644193 0.09071954 -1.4402646
-0.023465037 1.223688 -0.5103756 1.0491799 0.50782394 1.0074732 0.27049303 -0.20902117
1.2686945 -0.0022136176 -0.3855437 -1.339959 -0.5087978 -0.37645578 0.53743887 0.10600197
0.37899727 0.23197982 -0.010071441 -0.14879324 -0.9197755 1.0863628 -0.3262559 -0.7442708
-0.6321115 0.7800517 -1.9498645 0.37736762 -0.56477696 0.05804658 -0.2615035 0.88184744
-0.42086902 -1.041184 -0.61383176 0.07860469 1.0050178 0.17601794 -0.20979577 -0.7110174
-0.31795147 -0.3739454 0.14569986 -0.16193846 -0.22211696 0.5335513 0.6652719 0.60494745
0.62974 0.6598953 1.3850012 -0.35071316 -0.086978704 1.1579281 0.8754101 1.0297173
-0.2837644 0.5285438 -0.80620325 0.5400722 -1.2980175 -0.027353276 -1.6228315 0.40483207
-0.59801495 -0.04398661 0.07322019 -0.05308625 -0.64300865 0.10687853 0.004815453 0.65269786
-0.25246754 -0.54918903 0.57167137 0.1701429 -0.5155394 -0.476604 1.0501375 0.019816784
-0.39440155 0.19242765 -0.0063092713 -1.4020785 0.65826625 0.1176951 -0.2681178 -0.27184054
0.85552007 1.5435052 -1.0289618 -0.56942594 0.23916884 -0.13616322 1.564521 0.04425213
-0.16943346 -0.47524616 -1.4082242 0.44291356 -0.5880036 -0.9590811 0.1002977 -1.6638741
0.4633587 0.7416495 -0.46557993 0.39603776 -0.7425167 -0.67466706 -0.29456195 -0.07437705
-0.13738286 0.9205358 0.92604095 -0.70128304 -1.0324457 -0.18330494 -0.1110337 -0.0060037198
-2.1029696 0.6200307 1.1995445 0.0011309682 1.1377151 0.48208487 0.18873361 -0.8800983
-0.60727227 0.8512175 -0.5011954 0.5952827 0.054795787 -0.30280396 0.9934617 1.244135
0.54939884 -1.0466138 0.06754049 -1.6969961 -0.31577957 -2.0541737 0.64746964 0.31505778
00000000: 30e1 693e 8863 05be b959 2b3f 5e33 21bf
00000010: a87f b9bd b5ec 823f c8dc 25bd bfef c0be
00000020: 1af7 50bf f207 123f a428 973e eaf0 30bf
00000030: 24de 0abe a222 593e 88a6 8d3f 3a77 14be
00000040: 4b4d 58be ed59 a6bf a268 69be 9984 243e
00000050: 3eb6 153f 8727 543f 1fdc 3a3e e6a3 ad3e
00000060: 4966 80bc 0ae7 393e 40e0 8f3d 390a 92be
00000070: 0c91 48bf 4b6b 7abe 0694 c3be 96d4 8f3d
00000080: 0e1d ac3e 69f1 49be 663e 6e3f c808 70be
00000090: a8b6 ccbe e391 463f 82be 253f 7eb5 2cbe
000000a0: 9980 58be b687 403e ea9b 9ebe 20a8 033f
000000b0: ff01 37bf 9d21 063f af16 0dbf c9ea 75bf
000000c0: fe75 10bf 63d0 74be 6183 0bbe 8551 383f
000000d0: b4aa e8bd 86f2 7cbe 69b8 5bbd 2354 463e
000000e0: 613b afbd 63e7 3fbf 5fbe bf3f 668e d8be
000000f0: 392e 03bf f144 b83e e838 423f 2f6b 87bd
00000100: bbc2 a83d 3fdc d9bc 2bc6 3ebe 461a 913d
00000110: 5628 bdbf 41c9 90be 234c 483f d916 dbbd
00000120: 13df 01bd 16bf 22bf f27b e0be b62a debe
00000130: c874 723f ce58 6c3f 1103 7c3e e01f 173f
00000140: d947 b7be 7f41 f8bd 2387 28bf 7f95 943f
00000150: 5187 10bf a9f6 613d 41fa edbe af58 693e
00000160: 0ee1 3f3e 876b 7f3e cdbf 0abf 8e32 d63e
00000170: b079 6a3f c7be 093e 5491 fbbd ad35 5dbf
00000180: 66ee 893f 146d a5bd df8b 94bd 0c34 39bf
00000190: c8cf febd 5614 40be 34c1 93be 38e6 383e
000001a0: 0b89 1ebf 714a f23e 7746 39bc 9fb9 17bf
000001b0: 86b8 8abe b10b 95bf 2bcb b93d 975a b8bf
000001c0: c039 c0bc cfa1 9c3f faa7 02bf 874b 863f
000001d0: c000 023f e2f4 803f 107e 8a3e a509 56be
000001e0: 9564 a23f 5712 11bb fc65 c5be c783 abbf
000001f0: 9340 02bf d0be c0be 9895 093f 9017 d93d
00000200: ee0b c23e 1e8c 6d3e af02 25bc 415d 18be
00000210: 6876 6bbf f00d 8b3f 030b a7be 8888 3ebf
00000220: 0fd2 21bf 78b1 473f 2995 f9bf 5436 c13e
00000230: 3995 10bf 40c2 6d3d c9e3 85be c1c0 613f
00000240: 257c d7be 8445 85bf 1424 1dbf 7ffb a03d
00000250: 6ca4 803f 0c3e 343e b4d4 56be 3c05 36bf
00000260: 89ca a2be c575 bfbe 5832 153e 32d3 25be
00000270: a172 63be d196 083f 424f 2a3f d6dd 1a3f
00000280: a436 213f e6ee 283f b847 b13f ad90 b3be
00000290: e421 b2bd fd36 943f e01a 603f c7cd 833f
000002a0: 9149 91be a54e 073f 5663 4ebf 2c42 0a3f
000002b0: 7025 a6bf fa13 e0bc f1b8 cfbf 2646 cf3e
000002c0: 8217 19bf 4e2b 34bd 78f4 953d f870 59bd
000002d0: 379c 24bf 21e3 da3d f3ca 9d3b 3517 273f
000002e0: 6d43 81be a797 0cbf 0e59 123f f139 2e3e
000002f0: 64fa 03bf 7105 f4be e86a 863f cf56 a23c
00000300: 00ef c9be c10b 453e 01be cebb 4f77 b3bf
00000310: 2384 283f 210a f13d bc46 89be af2e 8bbe
00000320: 5d03 5b3f 9491 c53f 05b5 83bf e6c5 11bf
00000330: ade8 743e 5f6e 0bbe 3942 c83f b941 353d
00000340: f77f 2dbe 7753 f3be b140 b4bf 91c5 e23e
00000350: 6787 16bf 5786 75bf e168 cd3d d4f9 d4bf
00000360: 5a3d ed3e bedc 3d3f 7e60 eebe 76c5 ca3e
00000370: 9315 3ebf fbb6 2cbf d3d0 96be ff52 98bd
00000380: 18ae 0cbe 3ca8 6b3f 0511 6d3f 4987 33bf
00000390: 2e27 84bf 4ab4 3bbe a365 e3bd daba c4bb
000003a0: 0e97 06c0 55ba 1e3f ad8a 993f ff3c 943a
000003b0: a6a0 913f d4d3 f63e 6243 413e 1f4e 61bf
000003c0: 3276 1bbf 64e9 593f 574e 00bf 7264 183f
000003d0: 8c71 603d 1f09 9bbe 8253 7e3f d13f 9f3f
000003e0: 67a5 0c3f 71f7 85bf ab52 8a3d 2b37 d9bf
000003f0: dcad a1be 9577 03c0 92c0 253f 414f a13e

seq_embed.weight f4 [128, 40]
-0.15843199 0.2763408 -0.16975768 0.12613635 0.088417694 -0.08800086 0.18148819 0.07726961
-0.14699449 -0.22440471 0.3157599 -0.017986447 0.12188796 -0.079114646 -0.23866393 -0.21452792
0.5579611 -0.13160074 0.18173884 -0.18233207 -0.26980847 0.43291754 0.2378932 -0.022380406
0.24531901 -0.4381352 -0.1258909 -0.36955038 0.048183594 0.039585833 -0.13502097 0.33291745
0.6356807 -0.19261542 -0.14122254 -0.1788578 0.19963974 -0.28692517 0.32079402 -0.31969976
0.1509212 0.15040268 -0.24448903 -0.07774838 0.19134103 -0.037231006 -0.056479726 -0.38110316
0.046992715 -0.21163112 0.37008622 -0.28570792 0.2317545 0.051560033 -0.04903185 0.18233533
0.35546234 -0.22497493 -0.16906458 -0.12419085 0.22383389 0.1428095 0.1698416 0.085542254
-0.09180602 -0.044263944 -0.70407903 -0.18907398 -0.60180664 -0.37918517 0.8790841 0.37795407
-0.5455974 0.29580858 0.2876009 -0.5389592 0.1468099 -0.31116205 -0.38786724 -0.23919468
-0.1337548 0.016203107 -0.013395889 -0.15080854 -0.060556408 0.050788812 0.068859644 -0.2763353
0.22349453 -0.18996474 0.033041887 -0.48897892 -0.24927236 0.22754756 -0.031506408 0.14396763
-0.2700041 0.28721148 -0.30127713 0.017306112 -0.655261 0.36816344 0.08826668 0.3362008
0.09925485 -0.6431888 0.19559295 -0.12754421 0.16593125 -0.099710435 -0.16101845 -0.14120416
-0.02424404 0.100244015 0.09181446 -0.3140066 -0.10043959 0.36967397 -0.5923984 0.09417001
-0.19268563 0.41908523 -0.13690183 -0.08737422 0.105830655 -0.10666679 0.34473416 -0.019377029
-0.06431405 -0.072031744 -0.06437415 0.24727124 0.5074987 0.16844758 -0.267495 -0.25237194
0.31355622 -0.36805323 -0.23562387 -0.06859719 0.18480504 0.017123839 -0.13939801 -0.06826098
-0.022697117 0.27204466 -0.481462 -0.31922442 -0.12539175 0.22464678 0.4318105 0.1001856
0.043556593 0.14964584 0.28100184 -0.2994396 -0.1845076 0.16031356 0.01911522 -0.05274528
-0.08828182 0.051343556 -0.05803934 -0.003101019 0.099782944 0.0025668738 0.045656394 -0.06878829
0.040164612 0.047171038 -0.03338431 0.46354812 -0.18973565 -0.22822887 0.3073583 0.12838165
-0.21678236 -0.11999508 -0.010223711 0.12692109 0.14411046 -0.0912162 0.07129564 -0.27513477
-0.043025803 -0.3515158 0.41566452 0.09625151 0.19845283 -0.20809516 -0.11830763 -0.084154986
-0.243857 0.2217273 0.05282381 -0.02050139 0.061228413 -0.071966834 -0.17650987 0.103764966
0.14796565 -0.25166345 -0.16182801 0.11566604 0.16122948 -0.09843544 0.022088856 -0.20553291
0.22206791 -0.010751828 -0.0142051885 -0.13820358 0.30168852 -0.01907349 0.17442702 -0.1674777
-0.038806617 -0.39078635 0.1405857 -0.4666077 0.40284315 0.42494264 -0.18138576 -0.20714127
0.42836758 0.031845536 0.033212785 0.23393358 -0.053529985 -0.4130622 0.05938388 0.061508097
-0.28786245 0.08679222 -0.38179946 0.27487656 0.5651329 -0.08301142 -0.02245137 0.43529874
-0.40249228 -0.20907854 0.1341323 0.40607437 -0.13101205 -0.5021329 0.19030032 0.021463811
0.15506878 0.14193851 -0.23582639 0.855487 -0.17848487 -0.0467186 0.48886007 -0.17643523
00000000: ff3b 22be 8b7c 8d3e f5d4 2dbe e329 013e
00000010: 5614 b53d cb39 b4bd 0ad8 393e 873f 9e3d
00000020: b985 16be 59ca 65be 48ab a13e 5058 93bc
00000030: 65a0 f93d dc06 a2bd 5164 74be 35ad 5bbe
00000040: 8ad6 0e3f 58c2 06be bf19 3a3e 42b5 3abe
00000050: 5624 8abe 5ea7 dd3e 469a 733e 1d57 b7bc
00000060: e834 7b3e 4253 e0be 8be9 00be b535 bdbe
00000070: 295c 453d c124 223d f042 0abe 2874 aa3e
00000080: f8bb 223f fa3c 45be a49c 10be 8026 37be
00000090: 5c6e 4c3e dbe7 92be 1d3f a43e b0af a3be
000000a0: 168b 1a3e 2903 1a3e 555b 7abe 8b3a 9fbd
000000b0: e7ee 433e 8a7f 18bd 4957 67bd f41f c3be
000000c0: 6f7b 403d d4b5 58be f17b bd3e 4f48 92be
000000d0: 0d51 6d3e 9d30 533d 9fd5 48bd 1db6 3a3e
000000e0: 29ff b53e d45f 66be 441f 2dbe c657 febd
000000f0: b634 653e a73c 123e f5ea 2d3e c730 af3d
00000100: cb04 bcbd 1c4e 35bd 863e 34bf 9c9c 41be
00000110: 0010 1abf 8f24 c2be a80b 613f 3283 c13e
00000120: 45ac 0bbf 3974 973e 6d40 933e 3bf9 09bf
00000130: 5655 163e a250 9fbe 8996 c6be 73ef 74be
00000140: 05f7 08be 61bc 843c 6e7a 5bbc 8e6d 1abe
00000150: ff09 78bd ee07 503d 4906 8d3d d27b 8dbe
00000160: c0db 643e 1e86 42be ee56 073d 725b fabe
00000170: 4141 7fbe 3a02 693e dd0c 01bd 406c 133e
00000180: fa3d 8abe 620d 933e ff40 9abe 8cc5 8d3c
00000190: 2fbf 27bf eb7f bc3e 29c5 b43d 8322 ac3e
000001a0: 2046 cb3d 05a8 24bf 8549 483e f39a 02be
000001b0: e2e9 293e fc34 ccbd 05e2 24be d397 10be
000001c0: 709b c6bc bc4c cd3d 3809 bc3d 79c5 a0be
000001d0: 46b3 cdbd e845 bd3e 6ca7 17bf 35dc c03d
000001e0: 624f 45be 5792 d63e fe2f 0cbe 41f1 b2bd
000001f0: bebd d83d 1e74 dabd ff80 b03e 93bc 9ebc
00000200: 16b7 83bd 6185 93bd 98d6 83bd ac34 7d3e
00000210: 6feb 013f 867d 2c3e 1bf5 88be e536 81be
00000220: 718a a03e 7971 bcbe 6247 71be af7c 8cbd
00000230: 883d 3d3e 4b47 8c3c 5abe 0ebe 6acc 8bbd
00000240: 4eef b9bc 7049 8b3e 3082 f6be 6271 a3be
00000250: b266 00be ce09 663e 4416 dd3e 1c2e cd3d
00000260: 6668 323d c23c 193e 79df 8f3e 2650 99be
00000270: 8fef 3cbe 3d29 243e 8697 9c3c 6f0b 58bd
00000280: 19cd b4bd 9f4d 523d a9ba 6dbd 773a 4bbb
00000290: 005b cc3d ff38 283b 3302 3b3d e0e0 8cbd
000002a0: a683 243d 6b36 413d fcbd 08bd 2e56 ed3e
000002b0: 104a 42be d4b4 69be 115e 9d3e 7b76 033e
000002c0: 32fc 5dbe fbbf f5bd 5a81 27bc 9af7 013e
000002d0: b191 133e 8fcf babd 7303 923d 77de 8cbe
000002e0: d33b 30bd e1f9 b3be fbd1 d43e 831f c53d
000002f0: 3837 4b3e e616 55be 454b f2bd 7359 acbd
00000300: a6b5 79be 7b0c 633e c85d 583d 88f2 a7bc
00000310: a5ca 7a3d 5963 93bd 01bf 34be ba82 d43d
00000320: 4f84 173e 08da 80be 3eb6 25be 51e2 ec3d
00000330: 5719 253e 8598 c9bd b0f3 b43c 3877 52be
00000340: c565 633e 6f28 30bc e1bc 68bc 3d85 0dbe
00000350: eb76 9a3e 0240 9cbc ff9c 323e 467f 2bbe
00000360: b0f3 1ebd 2615 c8be b3f5 0f3e 34e7 eebe
00000370: 7541 ce3e 1592 d93e 30bd 39be d71c 54be
00000380: ff52 db3e 7770 023d 210a 083d 498c 6f3e
00000390: 4242 5bbd e47c d3be 833c 733d eaef 7b3d
000003a0: b562 93be 1fc0 b13d 387b c3be 9fbc 8c3e
000003b0: 8dac 103f e401 aabd efeb b7bc 7adf de3e
000003c0: 7813 cebe af18 56be fa59 093e fbe8 cf3e
000003d0: 0628 06be c88b 00bf 16de 423e e0d4 af3c
000003e0: 5aca 1e3e 5458 113e 797c 71be 3201 5b3f
000003f0: bdc4 36be 015c 3fbd de4b fa3e 70ab 34be

seq_embed.bias f4 [128]
-0.1589511 -0.070636824 0.08494643 0.064659804 0.17821856 -0.07094217 -0.26079142 -0.026127165
-0.21288383 0.035733864 -0.12894511 -0.39213672 0.22639172 -0.13088745 0.6586654 -0.14364347
0.2662611 0.16344951 -0.076621406 0.33426195 0.19682416 0.0018610087 -0.026118465 0.23645334
0.05991973 0.26164353 0.12311688 -0.36001557 0.12643118 0.0017892532 -0.1375351 0.12646842
0.058971833 0.2952367 -0.10955483 -0.21692152 0.09075056 -0.019784177 -0.08226065 -0.20377934
0.02930456 0.23286164 -0.17073832 0.61530715 0.14707264 0.18158378 0.05764203 -0.303722
-0.20207064 -0.32481128 -0.42705792 0.05180334 0.20271696 -0.06224427 0.40778562 0.09390351
-0.1724177 -0.12370376 -0.51392585 0.21844499 0.21119863 -0.19142872 0.17921048 0.24244113
-0.34239992 0.3042348 0.34567198 0.24415725 0.0929627 0.36255118 0.06711914 -0.098937385
-0.109470956 -0.07518474 -0.16996123 -0.06405668 0.2513225 0.4083282 -0.03274886 -0.11077433
0.11360562 -0.10902875 -0.079905525 -0.18959329 0.16572087 -0.5483703 0.33027577 0.049310915
0.19180875 -0.008972561 0.28888935 -0.18979248 0.04336957 0.018594371 -0.2810194 -0.17428474
0.16703637 0.28574073 -0.3277569 -0.13438557 0.2186082 -0.06929388 -0.15087654 -0.17123161
0.25070244 0.4796182 0.32166684 0.23187524 -0.27538455 0.26062715 -0.059269883 -0.04992854
0.08322017 0.006848206 -0.2127988 -0.2996235 -0.18951552 0.1395246 -0.16266163 0.3036331
0.25542542 -0.3396088 -0.26438868 -0.3763896 -0.059760377 0.24672003 0.40365496 -0.42942116
00000000: 14c4 22be 0aaa 90bd 65f8 ad3d 5c6c 843d
00000010: ed7e 363e 214a 91bd 7486 85be a308 d6bc
00000020: 38fe 59be ac5d 123d 300a 04be 25c6 c8be
00000030: 3bd3 673e 5c07 06be 4c9e 283f 4617 13be
00000040: 6053 883e 4f5f 273e afeb 9cbd 6224 ab3e
00000050: 468c 493e 17ed f33a 64f6 d5bc d320 723e
00000060: 646e 753d 24f6 853e b424 fc3d f653 b8be
00000070: 2d77 013e 6085 ea3a 00d6 0cbe f080 013e
00000080: 738c 713d 4429 973e 485e e0bd ad20 5ebe
00000090: 6edb b93d 6d12 a2bc 4678 a8bd 88ab 50be
000000a0: 1e10 f03c 4873 6e3e 07d6 2ebe c584 1d3f
000000b0: 369a 163e 19f1 393e 0d1a 6c3d 7381 9bbe
000000c0: 9beb 4ebe aa4d a6be 56a7 dabe bd2f 543d
000000d0: 0995 4f3e d9f3 7ebd 47c9 d03e 7c50 c03d
000000e0: 448e 30be 6658 fdbd a590 03bf 0bb0 5f3e
000000f0: 7444 583e e405 44be f482 373e 7d42 783e
00000100: 0b4f afbe aac4 9b3e ebfb b03e 5c04 7a3e
00000110: 3a63 be3d 4fa0 b93e c275 893d af9f cabd
00000120: 4f32 e0bd 75fa 99bd 510a 2ebe 2630 83bd
00000130: 58ad 803e 6510 d13e ab23 06bd a7dd e2bd
00000140: 10aa e83d 774a dfbd 82a5 a3bd be24 42be
00000150: bbb2 293e ff61 0cbf e819 a93e 3efa 493d
00000160: 8369 443e a601 13bc 4ee9 933e f658 42be
00000170: 4aa4 313d 3953 983c c6e1 8fbe b377 32be
00000180: 950b 2b3e 9c4c 923e c1cf a7be 5f9c 09be
00000190: d4da 5f3e f3e9 8dbd 617f 1abe 5757 2fbe
000001a0: 125c 803e 8490 f53e 84b1 a43e b470 6d3e
000001b0: 34ff 8cbe ec70 853e fac4 72bd de81 4cbd
000001c0: 566f aa3d ea66 e03b eee7 59be 4068 99be
000001d0: 5b10 42be 89df 0e3e c590 26be cc75 9b3e
000001e0: 1fc7 823e 34e1 adbe f45d 87be 23b6 c0be
000001f0: 4cc7 74bd 2da4 7c3e ddab ce3e 17dd dbbe

conv_seq.0.c1.weight f4 [6, 128, 1]
0.2918214 0.033705764 0.16496927 0.22554608 0.022910615 -0.08186029 -0.046580363 0.05153259
0.32893097 0.17202576 -0.046518836 0.027523335 -0.25494507 -0.5144128 -0.20729616 -0.024836404
-0.06836801 0.030784912 -0.04152708 -0.12275949 0.13931787 0.15323146 -0.41146162 -0.14941758
-0.079043776 -0.25125453 -0.0034082506 0.15582287 -0.07702859 -0.087870926 -0.17751764 -0.049998708
0.1837102 -0.055115253 0.083720826 0.100778595 0.11719503 -0.10615564 -0.064384274 -0.10986525
0.19770221 -0.13056742 -0.10962708 0.251081 0.11550046 -0.08705851 -0.027485963 -0.003937407
-0.19145273 -0.037607342 0.11813564 -0.20420727 0.12654634 -0.24034368 -0.24925578 0.18447164
0.022769628 0.150291 -0.021087123 -0.1779659 0.12398261 -0.2106123 0.028052941 0.21804042
0.16894062 -0.08116927 -0.20341401 0.09332262 -0.08578273 -0.30733436 -0.11509045 -0.07792623
0.2189427 -0.0045464993 -0.3280252 -0.008299053 0.04312334 -0.082704976 -0.021306433 -0.53855217
0.0855306 0.082574174 0.40695047 0.1277547 -0.010277806 0.067275606 -0.11693398 0.2534091
0.003984865 0.08646898 0.2628388 -0.1465961 0.26538906 -0.20834255 -0.12349259 0.2429865
-0.062836975 -0.11506496 -0.2206187 -0.23046038 0.16334891 0.18038839 0.0033042207 0.19399889
0.23717538 0.19878104 0.0011593906 -0.02624407 -0.024952736 -0.11658059 -0.072723396 -0.11684298
0.15218532 0.26871914 -0.07706852 0.14337341 0.20531246 -0.08891744 0.07716489 -0.088964626
-0.06756156 -0.2941666 -0.12720373 0.10618081 0.07758682 0.2593935 -0.25275826 0.13124892
0.114984035 -0.13839775 -0.06342818 -0.004418962 -0.19150934 -0.11344822 -0.016823687 0.0491255
-0.044573322 -0.0848848 -0.0994745 -0.11350361 -0.07825025 0.13524464 0.07408458 -0.08766629
0.16212445 0.1298137 -0.055968374 -0.09878067 0.07999166 -0.18043444 0.028349888 -0.07001041
0.051136933 0.030190872 -0.17654353 0.046364676 0.04106546 -0.05483054 -0.17337732 0.08834562
-0.049259927 0.09196387 -0.04091325 -0.047725145 -0.21962993 -0.12289266 -0.029682573 0.06047032
-0.044355713 0.07339271 0.0077794734 0.10666473 -0.06606753 0.038856447 -0.03222823 0.17924558
-0.028576538 0.031116832 -0.044862878 -0.0020506654 -0.014153407 -0.02947137 0.09693779 -0.11552196
0.020987218 -0.04471897 0.08093338 0.054598242 0.043405667 0.08292918 0.07143205 -0.014786939
-0.059944384 -0.051600546 -0.1274309 -0.08769523 -0.10529863 0.11869532 -0.047291003 -0.034247726
-0.009300856 0.064847186 0.1513836 0.004240395 0.15180603 -0.002100363 0.2250018 -0.07135076
-0.20701623 -0.073020935 -0.029352296 0.060094662 0.07234814 -0.11031424 0.05907524 -0.16336411
0.03696115 0.1467034 0.017480988 -0.071977675 -0.18509196 0.081535675 -0.06698177 -0.028358418
0.045622956 -0.066421196 -0.12335675 0.19718862 0.04475612 0.12871663 -0.009390619 -0.01655676
0.12567627 0.06304131 -0.039182786 0.045699034 0.024078168 -0.08023702 0.21562783 -0.059406146
0.017116737 -0.018302167 -0.053507872 -0.16870154 0.05971549 0.1972843 -0.048611853 0.12666127
0.0431914 0.044631626 0.17448035 -0.09891064 0.10851235 -0.04093675 0.037268907 -0.02647347
00000000: 9d69 953e 0e0f 0a3d b4ed 283e 8df5 663e
00000010: 0baf bb3c 5ea6 a7bd 0dcb 3ebd d613 533d
00000020: a469 a83e 8527 303e 898a 3ebd 9e78 e13c
00000030: 2988 82be 8fb0 03bf 7245 54be b775 cbbc
00000040: 8704 8cbd a430 fc3c 4d18 2abd 5469 fbbd
00000050: 58a9 0e3e b5e8 1c3e 19ab d2be ec00 19be
00000060: b4e1 a1bd 6fa4 80be f55c 5fbb 0890 1f3e
00000070: 2ac1 9dbd acf5 b3bd 2fc7 35be 72cb 4cbd
00000080: 871e 3c3e 88c0 61bd d375 ab3d 0265 ce3d
00000090: f303 f03d 2168 d9bd e7db 83bd 0801 e1bd
000000a0: 7372 4a3e 77b3 05be 2a84 e0bd b08d 803e
000000b0: 818b ec3d bb4b b2bd 3e2a e1bc 5d05 81bb
000000c0: 2f0c 44be 280a 1abd 19f1 f13d b61b 51be
000000d0: 5d95 013e a71c 76be e83c 7fbe 22e6 3c3e
000000e0: 5f87 ba3c e2e5 193e e7be acbc b13c 36be
000000f0: 98ea fd3d c0aa 57be 48cf e53c fd45 5f3e
00000100: c5fe 2c3e 133c a6bd c34b 50be ee1f bf3d
00000110: dbae afbd ee5a 9dbe 8bb4 ebbd ca97 9fbd
00000120: 8432 603e cdfa 94bb ebf2 a7be c0f8 07bc
00000130: 19a2 303d 3a61 a9bd d48a aebc 8ede 09bf
00000140: ab2a af3d a61c a93d d05b d03e 21d2 023e
00000150: 3e64 28bc cbc7 893d 157b efbd d6be 813e
00000160: 7893 823b a616 b13d cf92 863e 4a1d 16be
00000170: 13e1 873e c057 55be afe9 fcbd 74d1 783e
00000180: acb0 80bd 2ea7 ebbd dee9 61be cefd 6bbe
00000190: f044 273e bcb7 383e a08b 583b a5a7 463e
000001a0: 1ade 723e 428d 4b3e b1f6 973a cefd d6bc
000001b0: ae69 ccbc cec1 eebd 01f0 94bd 5f4b efbd
000001c0: 78d6 1b3e 8e95 893e 1ad6 9dbd 7bd0 123e
000001d0: 6e3d 523e 591a b6bd a008 9e3d 1633 b6bd
000001e0: b75d 8abd 019d 96be b241 02be 5375 d93d
000001f0: d7e5 9e3d 3acf 843e 8869 81be 1e66 063e
00000200: c07c eb3d 24b8 0dbe a2e6 81bd f1cc 90bb
00000210: 061b 44be 8a57 e8bd d4d1 89bc d237 493d
00000220: 8492 36bd 15d8 adbd 49b9 cbbd 9574 e8bd
00000230: ab41 a0bd 927d 0a3e a8b9 973d 628a b3bd
00000240: f403 263e e2ed 043e 183f 65bd 854d cabd
00000250: abd2 a33d cec3 38be 063e e83c 9e61 8fbd
00000260: f674 513d d952 f73c d4c7 34be e3e8 3d3d
00000270: 4134 283d fd95 60bd d389 31be 8cee b43d
00000280: c7c4 49bd 8e57 bc3d a794 27bd 717b 43bd
00000290: abe6 60be 26af fbbd de28 f3bc baaf 773d
000002a0: 56ae 35bd eb4e 963d f4ea fe3b 0a73 da3d
000002b0: 6a4e 87bd f027 1f3d c001 04bd 278c 373e
000002c0: 5819 eabc bae8 fe3c 23c2 37bd 7564 06bb
000002d0: b1e3 67bc f16d f1bc 5287 c63d c796 ecbd
000002e0: 63ed ab3c 3d2b 37bd 66c0 a53d 68a2 5f3d
000002f0: 24ca 313d c6d6 a93d f74a 923d eb44 72bc
00000300: 3e88 75bd 185b 53bd 3f7d 02be 8f99 b3bd
00000310: cfa6 d7bd 8816 f33d 36b4 41bd 5847 0cbd
00000320: 9e62 18bc 9ace 843d 4d04 1b3e 03f3 8a3b
00000330: 0a73 1b3e 3ea6 09bb df66 663e 5920 92bd
00000340: 10fc 53be 008c 95bd 3a74 f0bc d225 763d
00000350: 432b 943d 6fec e1bd e1f8 713d ec48 27be
00000360: 9364 173d 6b39 163e 4a34 8f3c 0869 93bd
00000370: bf88 3dbe 2dfc a63d bd2d 89bd ea4f e8bc
00000380: 23df 3a3d d607 88bd 77a2 fcbd d0eb 493e
00000390: 3152 373d 4bce 033e 1cdb 19bc 0ba2 87bc
000003a0: 48b1 003e cd1b 813d 217e 20bd e92e 3b3d
000003b0: 943f c53c 4f53 a4bd 8bcd 5c3e dc53 73bd
000003c0: 6638 8c3c 6dee 95bc 122b 5bbd 19c0 2cbe
000003d0: 3b98 743d e504 4a3e 391d 47bd 7eb3 013e
000003e0: 77e9 303d a7cf 363d faaa 323e a991 cabd
000003f0: b93b de3d 4bad 27bd 48a7 183d e4de d8bc

conv_seq.0.c1.bias f4 [6]
0.09504805 0.0058726547 0.03063087 0.010815526 0.047656626 0.00094461575
00000000: 8da8 c23d 666f c03b 97ed fa3c 9b33 313c
00000010: 9833 433d 17a0 773a

conv_seq.0.br1.0.weight f4 [6]
0.95117146 0.61193085 0.6849576 0.7964951 0.6721991 0.68260705
00000000: f97f 733f 80a7 1c3f 6259 2f3f 1ae7 4b3f
00000010: 3d15 2c3f 56bf 2e3f

conv_seq.0.br1.0.bias f4 [6]
0.07217886 -0.31421155 0.03027047 -0.16816632 -0.24009894 0.21664064
00000000: 83d2 933d 56e0 a0be c7f9 f73c cb33 2cbe
00000010: 7fdc 75be 0bd7 5d3e

conv_seq.0.br1.0.running_mean f4 [6]
0.287258 0.18517753 1.0645654 0.62588376 0.48214102 -0.46665967
00000000: 7b13 933e 2e9f 3d3e ae43 883f eb39 203f
00000010: 30db f63e 04ee eebe

conv_seq.0.br1.0.running_var f4 [6]
5.9176354 0.9239542 2.4385507 3.6819317 1.8792096 2.117846
00000000: 455d bd40 4388 6c3f 3711 1c40 c5a4 6b40
00000010: f189 f03f ca8a 0740

conv_seq.0.d1.conv.weight f4 [8, 6, 3]
0.35533455 0.011007544 0.14247333 -0.27808434 0.0073228884 -0.16273692 -0.1980876 -0.020766268
0.3200565 0.33324885 0.15506275 0.06658539 -0.15646373 0.11376835 0.3276542 0.19153301
0.02573416 -0.07015131 0.40256554 -0.078120485 0.08762208 0.0736776 0.1493725 -0.3906785
0.21330726 -0.08350449 0.057302117 0.13482347 -0.080461904 -0.07323117 0.1459717 0.17108376
0.14803286 -0.10922332 -0.04242953 -0.073428944 -0.026623577 0.052622046 0.17686401 0.03930337
0.051715672 0.08515772 0.33882838 0.0039746696 -0.14721704 0.19730848 0.08214209 -0.015604248
0.3012754 -0.23600885 0.02256295 0.1463173 0.21997362 0.29396406 -0.33277187 -0.03953232
-0.37876144 -0.18974619 0.1643238 -0.23422019 0.07976881 -0.020980285 -0.39557433 0.25759804
-0.10840959 0.25834042 0.02515472 0.06997841 -0.12338937 -0.17999452 -0.049348153 -0.0667971
-0.065478265 0.06248551 0.23760074 -0.16762584 0.0485398 0.23096131 -0.33629987 0.2857785
0.35248727 0.086288534 0.2158132 -0.11786863 -0.027377315 0.19997582 0.2116485 0.066077136
-0.15451589 -0.039673273 0.22066212 -0.057303477 0.0077237412 -6.357537e-06 0.17837393 0.14457875
0.12189006 0.12284897 0.021263478 0.08085539 -0.035830382 -0.22819604 0.06767678 0.2760694
-0.040387746 -0.024777476 -0.24584222 0.12225159 0.27189967 -0.21868873 -0.07694566 0.2419249
-0.07483796 0.01829967 0.11165733 0.080339655 -0.19002928 -0.2965856 0.048894282 -0.32813224
0.08399751 0.080155954 0.101625815 -0.16530854 0.163469 -0.06688306 -0.020334085 0.14583445
0.3005181 -0.12949334 -0.071167156 0.092554584 0.024496557 -0.068250716 0.29283422 0.39848152
0.23380022 0.0013271447 -0.024977043 0.058029924 0.39986715 0.20769368 0.11019521 -0.296237
00000000: 69ee b53e fc58 343c 87e4 113e 1261 8ebe
00000010: d7f4 ef3b 82a4 26be 7ad7 4abe 051e aabc
00000020: 72de a33e 989f aa3e c5c8 1e3e ec5d 883d
00000030: 0738 20be 61ff e83d 4bc2 a73e 3b21 443e
00000040: 72d0 d23c 7dab 8fbd 121d ce3e a2fd 9fbd
00000050: 3573 b33d 48e4 963d 1bf5 183e 0307 c8be
00000060: 386d 5a3e 6704 abbd a0b5 6a3d 2a0f 0a3e
00000070: 36c9 a4bd 39fa 95bd 9b79 153e 9530 2f3e
00000080: ed95 173e 7ab0 dfbd 96ca 2dbd ea61 96bd
00000090: b019 dabc 378a 573d d71b 353e 92fc 203d
000000a0: d0d3 533d 2c67 ae3d ea7a ad3e f23d 823b
000000b0: 10c0 16be 3c0b 4a3e 1d3a a83d f6a8 7fbc
000000c0: c540 9a3e 4eac 71be f0d5 b83c 34d4 153e
000000d0: c440 613e 7582 963e 1361 aabe a4ec 21bd
000000e0: 05ed c1be d34c 42be 8044 283e 6bd7 6fbe
000000f0: d45d a33d d9de abbc b888 cabe e4e3 833e
00000100: d905 debd 3245 843e 4511 ce3c d750 8f3d
00000110: 91b3 fcbd 7c50 38be 4a21 4abd ebcc 88bd
00000120: 7819 86bd cef0 7f3d 9c4d 733e 1ca6 2bbe
00000130: abd1 463d 1f81 6c3e 7f2f acbe 8f51 923e
00000140: 3679 b43e 0bb8 b03d 23fe 5c3e 1c65 f1bd
00000150: 6446 e0bc 76c6 4c3e 62ba 583e 7353 873d
00000160: 6a39 1ebe 7180 22bd 40f5 613e 0db7 6abd
00000170: 7017 fd3b d452 d5b6 a8a7 363e 740c 143e
00000180: 7fa1 f93d 3e98 fb3d bf30 ae3c 8397 a53d
00000190: e1c2 12bd 39ac 69be 209a 8a3d f858 8d3e
000001a0: 9f6d 25bd 22fa cabc 10be 7bbe 0b5f fa3d
000001b0: 6f36 8b3e f0ef 5fbe b095 9dbd 29bb 773e
000001c0: a544 99bd 31e9 953c 99ac e43d 1e89 a43d
000001d0: 0997 42be 11da 97be 5f45 483d f300 a8be
000001e0: e306 ac3d ce28 a43d 3221 d03d a446 29be
000001f0: 6b64 273e fcf9 88bd ab93 a6bc a055 153e
00000200: 82dd 993e e799 04be 16c0 91bd 428d bd3d
00000210: 01ad c83c 08c7 8bbd 5eee 953e c505 cc3e
00000220: 5369 6f3e 96f3 ad3a a89c ccbc c9b0 6d3d
00000230: 63bb cc3e a7ad 543e 07ae e13d 60ac 97be

conv_seq.0.d2.conv.weight f4 [6, 6, 3]
-0.40041095 0.28709397 0.09861385 -0.06673977 -0.1964736 -0.16185851 -0.21313883 -0.052135564
0.07151975 -0.35987526 -0.096579306 -0.30230808 -0.3388678 0.047195718 0.110504486 0.1649295
-0.03257322 0.2014844 0.05878851 0.055566806 -0.22502705 -0.47762182 0.13117896 0.09149664
0.2340971 -0.036542434 0.27426213 0.0793665 -0.224902 -0.17341453 -0.20841646 -0.3426001
0.20096903 -0.09473657 0.049697828 0.30390432 0.12583342 -0.30042487 0.20048472 0.117897615
0.13954008 0.05370781 0.054784317 0.17732191 -0.29742724 -0.11217577 0.043602828 -0.007039302
-0.1669641 0.271934 -0.0878315 0.30365902 0.10153029 -0.24803178 0.35876212 0.16756931
-0.037420947 -0.41922083 -0.22252184 -0.16146524 0.30305627 -0.06865348 -0.021089995 0.25574753
-0.013102842 0.26045877 0.032972656 0.02715465 -0.075968936 -0.02344953 0.0999661 0.18621781
-0.1242182 -0.050530627 0.02978897 -0.0028625478 0.026899083 -0.28698927 0.31310254 -0.09131758
0.12875608 0.11360085 -0.31198716 0.4721619 0.3423998 0.17789824 -0.01882062 0.08168625
0.010884011 0.08146127 0.20972611 0.12359428 -0.27417386 0.20018098 0.04436575 -0.048466314
0.28853682 0.04978344 -0.058365375 -0.060782056 -0.13835096 0.21484135 0.19975947 0.023033947
-0.03837197 -0.30126154 0.081683815 -0.24419554
00000000: aa02 cdbe fbfd 923e 0ff6 c93d dcae 88bd
00000010: 6030 49be 3dbe 25be 1141 5abe 1a8c 55bd
00000020: f278 923d 9241 b8be 5fcb c5bd 20c8 9abe
00000030: 1580 adbe 4c50 413d 2d50 e23d 47e3 283e
00000040: 7f6b 05bd ed51 4e3e 38cc 703d 059a 633d
00000050: 7e6d 66be d98a f4be c753 063e 9762 bb3d
00000060: 26b7 6f3e 85ad 15bd 166c 8c3e e78a a23d
00000070: b64c 66be 9493 31be 206b 55be 4869 afbe
00000080: d3ca 4d3e 3f05 c2bd f38f 4b3d 5999 9b3e
00000090: 7ada 003e 4ad1 99be de4b 4d3e 4e74 f13d
000000a0: 98e3 0e3e b8fc 5b3d 8565 603d e093 353e
000000b0: 6248 98be 69bc e5bd e198 323d f2a9 e6bb
000000c0: a3f8 2abe ef3a 8b3e 00e1 b3bd 3279 9b3e
000000d0: 1def cf3d 0bfc 7dbe abaf b73e 4a97 2b3e
000000e0: b546 19bd 1da4 d6be c4dc 63be 2557 25be
000000f0: 312a 9b3e 329a 8cbd edc4 acbc 57f1 823e
00000100: 4dad 56bc da5a 853e 560e 073d 6e73 de3c
00000110: 9a95 9bbd 3b19 c0bc 07bb cc3d e2af 3e3e
00000120: 1d66 febd 34f9 4ebd ff07 f43c 9599 3bbb
00000130: 775b dc3c 42f0 92be fa4e a03e b604 bbbd
00000140: a2d8 033e 90a7 e83d c8bc 9fbe 34bf f13e
00000150: 074f af3e f52a 363e b32d 9abc 1f4b a73d
00000160: da52 323c 2bd5 a63d 71c2 563e ff1e fd3d
00000170: 8460 8cbe 3efc 4c3e dcb8 353d 9d84 46bd
00000180: 19bb 933e b8e9 4b3d 8810 6fbd 9bf6 78bd
00000190: e0ab 0dbe 5fff 5b3e bf8d 4c3e b0b1 bc3c
000001a0: ed2b 1dbd f43e 9abe d849 a73d 650e 7abe

conv_seq.0.d4.conv.weight f4 [6, 6, 3]
0.18174821 0.23361744 -0.08485036 -0.14887828 0.024607595 -0.015674805 -0.38671538 -0.18512946
0.3154477 -0.19051583 0.07720933 -0.18040672 -0.1823937 0.054774255 0.026208818 -0.21009846
0.17047192 -0.22387357 0.55820674 -0.14650072 -0.42942175 -0.27450746 0.26210257 -0.010842248
0.19520444 -0.35868308 -0.1784281 -0.10952347 -0.10453633 -0.005172086 0.0885253 -0.038025215
-0.0030994324 -0.30174914 0.25273147 -0.0559984 -0.1155612 -0.12843087 -0.27071273 0.13083287
0.25339386 -0.07512478 0.084610865 0.19794476 -0.02128382 -0.089778274 -0.062552534 0.3101509
0.1762226 0.024204897 -0.2534948 -0.05861411 -0.20302176 0.15627116 0.05008253 0.0020410616
0.53883886 0.03556177 -0.031266302 -0.19056307 -0.07709713 -0.27647316 -0.10074727 -0.28951725
0.029454004 -0.4930945 0.00080714474 0.17708959 0.23076843 0.06328372 0.2251888 0.03976723
-0.36385062 0.06287441 0.4313585 0.031301323 -0.09824054 -0.21919231 0.19890209 0.0023147876
-0.14698397 0.14159116 -0.16136135 -0.4231404 0.028303804 0.30029613 0.044518955 0.40827674
0.017493 0.009818949 0.04335708 0.28237423 0.19892366 -0.014358606 -0.043809894 0.016268365
-0.069053166 -0.29060924 0.00240755 -0.1490953 0.053387355 -0.1796589 0.051279366 -0.17531718
-0.06630648 0.0341757 0.15430067 0.06270325
00000000: 341c 3a3e 6939 6f3e 07c6 adbd 8c73 18be
00000010: de95 c93c 7368 80bc 8fff c5be 9492 3dbe
00000020: 5c82 a13e 9516 43be ed1f 9e3d 8abc 38be
00000030: 6ac5 3abe f85a 603d e0b3 d63c 0d24 57be
00000040: 3190 2e3e 1d3f 65be a3e6 0e3f 4904 16be
00000050: 2bdd dbbe 3e8c 8cbe 4f32 863e afa3 31bc
00000060: ace3 473e 4fa5 b7be dbb5 36be d74d e0bd
00000070: 2517 d6bd 9a7a a9bb c14c b53d 54c0 1bbd
00000080: d91f 4bbb dd7e 9abe 0566 813e 945e 65bd
00000090: 5aab ecbd 6283 03be dc9a 8abe 0df9 053e
000000a0: d7bc 813e 05db 99bd 7648 ad3d 08b2 4a3e
000000b0: 685b aebc acdd b7bd 8b1b 80bd 19cc 9e3e
000000c0: b273 343e 5949 c63c 12ca 81be 5915 70bd
000000d0: f0e4 4fbe 8c05 203e 5723 4d3d 55c3 053b
000000e0: 58f1 093f 38a9 113d 1811 00bd f722 43be
000000f0: 1ae5 9dbd e48d 8dbe 9654 cebd 9b3b 94be
00000100: 8649 f13c e276 fcbe 9196 533a f956 353e
00000110: 8f4e 6c3e e59a 813d e597 663e f7e2 223d
00000120: a14a babe 4cc4 803d 05db dc3e d135 003d
00000130: 5632 c9bd f373 60be fdac 4b3e b1b3 173b
00000140: f782 16be 46fd 103e e93b 25be dca5 d8be
00000150: 61dd e73c 6ac0 993e 8259 363d a609 d13e
00000160: 7b4d 8f3c a8df 203c 3297 313d 5b93 903e
00000170: a5b2 4b3e 5c40 6bbc 0172 33bd 3c45 853c
00000180: bf6b 8dbd bcca 94be fdc7 1d3b 70ac 18be
00000190: b3ac 5a3d 81f8 37be 500a 523d 5986 33be
000001a0: b1cb 87bd d2fb 0b3d ff00 1e3e 906a 803d

conv_seq.0.d8.conv.weight f4 [6, 6, 3]
-0.12726918 0.13183318 0.22319081 -0.18960102 -0.20067626 -0.18540362 -0.15394056 0.031609323
0.0040055825 0.05210339 0.030902164 -0.45031643 0.06994027 -0.04411963 0.15850945 -0.093069546
0.08000596 -0.5884966 0.29898518 -0.17559248 0.16573125 -0.010066024 0.14983271 0.28473818
-0.13884154 -0.22795986 -0.13435431 0.00500657 -0.06125346 0.07334164 0.056066405 -0.03033667
-0.32846025 -0.34633738 0.26813883 0.14669 0.33606634 -0.22006615 0.36821347 -0.034026776
0.1989778 -0.09034122 -0.14772297 0.078634314 0.015997777 0.028531266 0.19086078 -0.1115854
0.08279178 0.026786543 -0.10247118 -0.019917937 -0.113026485 0.55888075 -0.1348105 0.19703504
-0.32877544 0.041430186 -0.03371645 0.16379204 -0.15476108 0.02850647 0.39272845 0.15804666
-0.03321506 0.23454635 0.0031201532 0.08531592 0.5268435 -0.1861924 0.19939815 -0.22775583
-0.15047365 0.27356595 0.1813708 0.15914121 -0.119534366 0.033951726 0.124719895 0.029811481
0.35658398 -0.093453094 -0.21018788 0.23538704 -0.05950972 0.083945245 0.38459563 0.0055566574
-0.07314674 0.19623527 0.1250715 -0.2157203 0.020073267 -0.13461277 -0.15735534 -0.025179489
-0.29372814 0.032958385 0.12848428 -0.06356912 0.0029754508 0.38804397 0.085002586 0.10817021
-0.11056977 0.0047104578 0.23296402 0.50433224
00000000: da52 02be 47ff 063e 228c 643e c526 42be
00000010: 147e 4dbe 72da 3dbe 98a2 1dbe c778 013d
00000020: 4341 833b 5d6a 553d 8926 fd3c e08f e6be
00000030: d83c 8f3d c9b6 34bd 4d50 223e 3f9b bebd
00000040: 2ada a33d b7a7 16bf 9614 993e 84ce 33be
00000050: 74b5 293e f7eb 24bc bf6d 193e 34c9 913e
00000060: 7a2c 0ebe 4f6e 69be 2d94 09be 270e a43b
00000070: e8e4 7abd 2434 963d e3a5 653d 9c84 f8bc
00000080: f12b a8be 2253 b1be 7e49 893e e735 163e
00000090: e310 ac3e 0559 61be 7a86 bc3e a95f 0bbd
000000a0: d6c0 4b3e d104 b9bd b144 17be 070b a13d
000000b0: c50d 833c 67ba e93c 0271 433e e386 e4bd
000000c0: bd8e a93d 746f db3c 69dc d1bd f12a a3bc
000000d0: 6e7a e7bd cf12 0f3f c40b 0abe 8ec3 493e
000000e0: 4155 a8be b3b2 293d 431a 0abd 1ab9 273e
000000f0: b079 1ebe 6786 e93c b413 c93e fcd6 213e
00000100: 840c 08bd eb2c 703e 7c7b 4c3b 1dba ae3d
00000110: 37df 063f 38a9 3ebe 072f 4c3e d338 69be
00000120: c415 1abe d610 8c3e 44b9 393e eaf5 223e
00000130: 6fce f4bd f710 0b3d 256d ff3d 3537 f43c
00000140: 2d92 b63e 5664 bfbd 7e3b 57be 4d09 713e
00000150: 77c0 73bd 7ceb ab3d b8e9 c43e 9f14 b63b
00000160: f5cd 95bd e6f1 483e be12 003e c8e5 5cbe
00000170: b170 a43c eed7 09be c221 21be 3745 cebc
00000180: 8963 96be 5fff 063d 6291 033e 8730 82bd
00000190: c8ff 423b b3ad c63e d615 ae3d 5888 dd3d
000001a0: 6772 e2bd 2f5a 9a3b 1f8e 6e3e eb1b 013f

conv_seq.0.d16.conv.weight f4 [6, 6, 3]
-0.23551063 0.46605635 -0.7848403 0.055041566 -0.016498355 -0.21881938 0.40388235 0.21337344
0.16315201 0.29195035 0.111227594 -0.12465059 0.037579853 0.0066410634 0.48584986 -0.0141590675
0.15590732 -0.1751719 0.5231244 -0.34024513 0.39441985 -0.6441229 0.19333127 0.14276867
-0.002604722 0.0057086945 -0.09640458 -0.13512103 -0.023818988 -0.09503112 0.15122601 0.08011199
-0.050723873 -0.086971395 0.037056793 -0.00800203 -0.12584451 0.036576275 -0.29200894 -0.040863093
0.0915628 -0.18523751 -0.0968355 0.021989565 -0.038355347 -0.17117721 0.07173447 -0.15168464
0.031022673 0.034367565 -0.1347306 -0.21925718 0.05324618 -0.067019664 0.37984452 0.049396623
0.03458708 -0.09210243 -0.1838535 0.22222443 0.04740479 -0.11324055 -0.20170942 -0.3722263
0.21775927 0.22170483 0.09712481 0.1375483 -0.8268004 -0.110344715 0.108962245 0.66878223
0.49869853 0.08508225 0.17436537 -0.152322 -0.014113989 0.17131704 0.049165104 0.026202772
0.15566707 -0.14403574 -0.2455272 0.24366887 0.14819899 0.12437068 -0.06254354 -0.2011049
-0.05444539 0.46817857 0.34807634 0.30076334 0.15612824 -0.59795296 -0.3816106 -0.14134584
-0.058708254 -0.2270667 -0.3622996 -0.26219475 0.17083675 0.30696318 -0.21379875 -0.072092235
-0.7429623 0.2666243 0.25930956 0.90643996
00000000: b329 71be f09e ee3e 4beb 48bf 4473 613d
00000010: 8f27 87bc 3012 60be abc9 ce3e 917e 5a3e
00000020: 5211 273e 847a 953e 4bcb e33d cf48 ffbd
00000030: 55ed 193d 479d d93b 50c1 f83e 6ffb 67bc
00000040: 2ba6 1f3e 4360 33be 7beb 053f 9c34 aebe
00000050: 66f1 c93e 3de5 24bf a2f8 453e f331 123e
00000060: fcb3 2abb 0010 bb3b c46f c5bd 2b5d 0abe
00000070: 0a20 c3bc ad9f c2bd feda 1a3e c111 a43d
00000080: d6c3 4fbd 0f1e b2bd ddc8 173d f21a 03bc
00000090: 62dd 00be 01d1 153d 3282 95be 0f60 27bd
000000a0: 4785 bb3d e7ae 3dbe b151 c6bd 7623 b43c
000000b0: 7f1a 1dbd 1449 2fbe 86e9 923d 3853 1bbe
000000c0: 4323 fe3c 01c5 0c3d d2f6 09be f484 60be
000000d0: ab18 5a3d 9b41 89bd fb7a c23e 1d54 4a3d
000000e0: 2fab 0d3d 33a0 bcbd 1844 3cbe cd8e 633e
000000f0: 862b 423d a9ea e7bd ea8c 4ebe 7294 bebe
00000100: 49fc 5e3e 9706 633e 5fe9 c63d 76d9 0c3e
00000110: 31a9 53bf 69fc e1bd 9927 df3d 5035 2b3f
00000120: 6a55 ff3e 9a3f ae3d d68c 323e 4cfa 1bbe
00000130: 5c3e 67bc bc6d 2f3e 5961 493d 32a7 d63c
00000140: 3067 1f3e 1b7e 13be 7b6b 7bbe 5584 793e
00000150: 7ac1 173e 0eb6 fe3d d416 80bd 71ee 4dbe
00000160: 2102 5fbd 1ab5 ef3e 1037 b23e a7fd 993e
00000170: 15e0 1f3e 7213 19bf 7762 c3be f7bc 10be
00000180: 1178 70bd 2c84 68be 557f b9be 643e 86be
00000190: d4ef 2e3e 472a 9d3e 0fee 5abe 18a5 93bd
000001a0: c732 3ebf fb82 883e 39c4 843e 730c 683f

conv_seq.0.br2.0.weight f4 [32]
0.9150642 0.61863446 0.46211606 0.71717995 0.80533874 0.5357917 0.55998266 0.7206374
0.65319663 0.52136445 0.7128938 0.5555263 0.46802974 0.8359019 0.74095786 0.77042085
0.57865053 0.7890394 0.8545883 0.49643007 0.4847655 0.72788197 0.76786697 0.8566943
0.5183857 0.622464 0.9229682 1.0427314 0.42482334 1.1594071 0.7997488 0.7661463
00000000: a641 6a3f d45e 1e3f 7a9a ec3e 1b99 373f
00000010: ae2a 4e3f a529 093f 065b 0f3f b17b 383f
00000020: e537 273f 2478 053f 3580 363f f936 0e3f
00000030: 98a1 ef3e abfd 553f 6aaf 3d3f 4d3a 453f
00000040: 7122 143f 7cfe 493f 4dc6 5a3f 152c fe3e
00000050: 2f33 f83e 7956 3a3f ee92 443f 5150 5b3f
00000060: edb4 043f cd59 1f3f a547 6c3f 3978 853f
00000070: 7282 d93e 7467 943f 56bc 4c3f 2a22 443f

conv_seq.0.br2.0.bias f4 [32]
0.2168135 -0.06927976 -0.23772347 0.36822098 0.25431743 -0.1132963 -0.22114271 0.1448205
0.10313283 -0.21345781 -0.020495443 0.0824147 -0.042434417 0.1033856 -0.18025285 0.35428318
0.26295766 -0.21935876 -0.071826875 -0.06113688 -0.2108189 -0.053596795 0.08929459 0.09436833
-0.102677636 0.010717603 0.21895055 -0.31435713 0.052213438 -0.15473361 0.22764774 -0.2779575
00000000: 5c04 5e3e 8ce2 8dbd c86d 73be 7687 bc3e
00000010: e535 823e e407 e8bd 3c73 62be d34b 143e
00000020: 4e37 d33d af94 5abe 0fe6 a7bc 0ac9 a83d
00000030: b6cf 2dbd d4bb d33d 3494 38be 9b64 b53e
00000040: 63a2 863e 959f 60be f819 93bd aa6a 7abd
00000050: e9e0 57be 5088 5bbd 15e0 b63d 2f44 c13d
00000060: a748 d2bd e398 2f3c 9334 603e 6bf3 a0be
00000070: c2dd 553d 7d72 1ebe 7d1c 693e 7250 8ebe

conv_seq.0.br2.0.running_mean f4 [32]
0.4076825 0.1757627 0.5107807 -0.39994255 0.26875156 0.14385478 -0.10124702 0.47938552
-0.24509577 -0.016461218 0.088312946 0.33313835 0.26732108 -0.010399178 -0.4375336 -0.20925897
0.025910996 0.3974386 0.42005345 0.04254538 -0.78550476 -0.21796407 0.38705873 0.5641786
0.797489 0.33746415 -0.5934627 -0.15329215 0.03477554 0.7873397 1.2024664 0.64239013
00000000: c3bb d03e 23fb 333e 86c2 023f 45c5 ccbe
00000010: ce99 893e ab4e 133e 995a cfbd 0572 f53e
00000020: 63fa 7abe add9 86bc 6bdd b43d 1c91 aa3e
00000030: 4fde 883e 5061 2abc 6704 e0be fc47 56be
00000040: 4c43 d43c 127d cb3e 3f11 d73e 1044 2e3d
00000050: d716 49bf f931 5fbe 902c c63e 026e 103f
00000060: 3d28 4c3f 1ac8 ac3e 2ced 17bf 9ef8 1cbe
00000070: cc70 0e3d 188f 493f 6bea 993f ae73 243f

conv_seq.0.br2.0.running_var f4 [32]
0.29380584 0.1932781 0.22802548 0.29620126 0.2333998 0.11140847 0.18256357 0.39363432
0.31346825 0.16181052 0.19901681 0.24650095 0.23749696 0.1524979 0.63226295 0.6527089
0.39920685 0.54419947 0.6365806 0.31574422 1.0701904 0.99925095 0.8391667 0.9846775
1.1193918 0.42524922 1.8018296 1.4401318 0.88350886 1.4458789 1.9911804 1.1339799
00000000: b86d 963e b2ea 453e 837f 693e b1a7 973e
00000010: 5b00 6f3e 202a e43d f2f1 3a3e 708a c93e
00000020: e97e a03e a8b1 253e 10cb 4b3e bf6a 7c3e
00000030: 6732 733e 6928 1c3e fcdb 213f ee17 273f
00000040: d764 cc3e a850 0b3f f2f6 223f 3aa9 a13e
00000050: 00fc 883f e9ce 7f3f a1d3 563f d313 7c3f
00000060: 3b48 8f3f 44ba d93e 5aa2 e63f 3d56 b83f
00000070: a32d 623f 8f12 b93f 00df fe3f 4126 913f

conv_seq.1.c1.weight f4 [12, 32, 1]
0.25091982 0.06626931 -0.1922737 -0.25907138 0.19624524 -0.07022997 0.046834294 0.17464484
-0.067735106 0.05532369 0.14762057 -0.22168617 -0.022366984 -0.17582683 0.16683574 -0.082482874
0.01437198 -0.182082 -0.371727 -0.12680653 0.02842078 0.2339603 0.19408454 -0.3055247
-0.122017756 0.1144176 0.022397961 0.18448907 0.018817939 -0.22459821 -0.24384667 0.07600818
0.34096086 0.16536748 0.04521432 -0.07766673 -0.11457965 -0.008020305 0.02121103 0.11900678
0.16308118 0.20591949 -0.35524294 -0.013170184 0.031013286 -0.20530842 0.24737187 0.32072553
-0.12821047 0.023409141 -0.20152278 -0.07833246 0.010535758 0.15641944 -0.054630455 0.19089144
-0.15595607 -0.2076893 0.20225373 0.20444651 -0.074673556 0.105635695 -0.20195925 0.2882369
-0.014416566 0.2167359 -0.03403462 0.01632718 -0.05525727 -0.010431951 0.005974621 0.06945187
-0.10520261 -0.12837186 -0.10598027 0.1265027 0.0686209 -0.23221794 0.07584854 0.19110672
-0.03556167 -0.03373718 -0.23080188 -0.14600505 -0.12851109 0.21758881 -0.12279037 -0.059347667
-0.25186554 -0.014342251 -0.111546665 0.42514566 -0.1154744 0.062167317 -0.04963869 -0.03645245
0.34599328 0.07870851 0.0913882 -0.24709767 0.23701376 0.003136879 -0.17831808 0.2738193
-0.1870949 -0.10684062 0.02864151 0.050581798 0.016806073 -0.2775113 0.11830308 -0.03712405
-0.25969362 0.111726254 -0.15687105 0.16168061 0.0122287655 0.06167507 -0.24385662 0.1933021
0.11612617 -0.16783679 -0.1703635 -0.17798872 -0.16700691 0.52672315 0.07479591 0.27728778
0.13381068 0.16443816 -0.08641652 -0.21623734 0.19895203 0.18203849 0.067883186 -0.11502337
-0.062380504 -0.10449369 0.17781343 -0.06622819 0.12585294 -0.077868655 -0.09877971 -0.37890097
0.19563244 0.22642183 -0.015330187 -0.012224739 0.11961483 -0.17757766 0.299196 -0.19593367
-0.19732611 0.13134028 -0.2931031 -0.08324751 0.08126411 -0.29675934 -0.068889946 0.020875659
-0.2644443 -0.17633761 0.12724008 0.0168383 -0.067413226 -0.23585717 -0.24343526 -0.030355938
-0.163918 0.00817697 0.1508223 0.030974457 0.06911844 0.077521905 0.15441857 -0.043713357
-0.11751547 0.21785603 0.047813218 0.038704805 -0.06773151 0.053206373 -0.02526622 0.09676342
-0.05338605 -0.07040478 -0.21424103 -0.25798285 0.034058206 0.31029296 0.19885851 0.2160894
-0.06665154 -0.0070902733 -0.014038661 0.0539947 0.056694858 0.054691266 0.07262328 -0.121863045
-0.03332185 -0.008967085 0.1325721 -0.19988397 0.083095804 0.16233318 0.03706738 -0.10544322
0.13309065 0.19343644 -0.0224668 -0.017906984 0.031004548 -0.14768608 0.30330074 -0.18104173
0.016396662 0.31433696 -0.2902604 -0.06854601 0.18095589 -0.17654513 -0.14814995 0.12124135
-0.037660338 0.06950624 0.07712093 0.1116824 -0.30954176 0.0010883621 -0.05827621 -0.12010901
-0.20177673 0.008992118 0.15548973 0.17674807 0.15609084 0.21907505 0.0351427 -0.2696362
-0.05381333 0.3521362 0.31617558 0.040553845 0.17925175 -0.19662581 0.054906335 0.051268127
-0.042693935 -0.0023638636 -0.35579008 -0.2861304 -0.039044693 0.29546675 0.1304555 0.15279877
00000000: 9078 803e 34b8 873d 66e3 44be 01a5 84be
00000010: 83f4 483e bbd4 8fbd 51d5 3f3d 19d6 323e
00000020: b4b8 8abd 189b 623d d929 173e b301 63be
00000030: f73a b7bc f30b 34be fdd6 2a3e c8ec a8bd
00000040: 7478 6b3c b473 3abe 0053 bebe 92d9 01be
00000050: b2d2 e83c 4a93 6f3e 19be 463e bc6d 9cbe
00000060: 72e4 f9bd c653 ea3d ee7b b73c b4ea 3c3e
00000070: 1428 9a3c 13fd 65be f1b2 79be 2daa 9b3d
00000080: 6c92 ae3e 1856 293e a732 393d bc0f 9fbd
00000090: bca8 eabd 9967 03bc c1c2 ad3c d4b9 f33d
000000a0: c1fe 263e 8fdc 523e 67e2 b5be c1c7 57bc
000000b0: 930f fe3c 5f3c 52be 0d4f 7d3e 2336 a43e
000000c0: 9b49 03be 87c4 bf3c fd5b 4ebe c56c a0bd
000000d0: 2c9e 2c3c 6b2c 203e 2fc4 5fbd 0c79 433e
000000e0: f3b2 1fbe 81ac 54be 9a1b 4f3e 6d5a 513e
000000f0: 73ee 98bd 8757 d83d 68ce 4ebe c993 933e
00000100: 7633 6cbc 04f0 5d3e e367 0bbd 94c0 853c
00000110: 7255 62bd c6ea 2abc c1c6 c33b c83c 8e3d
00000120: 7774 d7bd ea73 03be 2f0c d9bd ec89 013e
00000130: 1d89 8c3d 8aca 6dbe 7b56 9b3d 7bb1 433e
00000140: 1da9 11bd ff2f 0abd 5457 6cbe 5982 15be
00000150: 6998 03be 9acf 5e3e 8479 fbbd 8a16 73bd
00000160: 85f4 80be c3fb 6abc 9472 e4bd b1ac d93e
00000170: d87d ecbd 28a3 7e3d f051 4bbd 2a4f 15bd
00000180: 0826 b13e ed31 a13d bd29 bb3d 2c07 7dbe
00000190: bcb3 723e 1994 4d3b 0499 36be 0b32 8c3e
000001a0: ce95 3fbe 41cf dabd 9aa1 ea3c dc2e 4f3d
000001b0: e4ac 893c f615 8ebe e348 f23d 630f 18bd
000001c0: 90f6 84be bcd0 e43d cea2 20be 9a8f 253e
000001d0: 295b 483c 009f 7c3d 8db5 79be fcf0 453e
000001e0: 8fd3 ed3d 68dd 2bbe c573 2ebe ad42 36be
000001f0: dc03 2bbe 54d7 063f 992e 993d aaf8 8d3e
00000200: ab05 093e 7a62 283e 25fb b0bd 526d 5dbe
00000210: 15ba 4b3e 4c68 3a3e 5706 8b3d 5f91 ebbd
00000220: b382 7fbd ca00 d6bd b914 363e a5a2 87bd
00000230: 98df 003e 9a79 9fbd 044d cabd 4fff c1be
00000240: df53 483e 20db 673e 772b 7bbc 464a 48bc
00000250: 9ff8 f43d ebd6 35be 3830 993e d6a2 48be
00000260: db0f 4abe 117e 063e 9c11 96be ac7d aabd
00000270: cc6d a63d d7f0 97be 2c16 8dbd 6e03 ab3c
00000280: 3e65 87be d991 34be 394b 023e 79f0 893c
00000290: f20f 8abd 8b84 71be 1847 79be 04ad f8bc
000002a0: 1fda 27be b3f8 053c 2971 1a3e 25be fd3c
000002b0: f88d 8d3d cec3 9e3d e71f 1e3e c70c 33bd
000002c0: f3ab f0bd a715 5f3e cbd7 433d ee88 1e3d
000002d0: d1b6 8abd edee 593d 1bfb cebc e62b c63d
000002e0: 55ab 5abd 6230 90bd 0062 5bbe 5416 84be
000002f0: 9e80 0b3d b8de 9e3e 91a1 4b3e 8a46 5d3e
00000300: 9a80 88bd 8655 e8bb 6902 66bc 8c29 5d3d
00000310: de38 683d f303 603d 84bb 943d 5593 f9bd
00000320: 7e7c 08bd aeea 12bc fbc0 073e 62ae 4cbe
00000330: 222e aa3d ab3a 263e f7d3 173d 9df2 d7bd
00000340: ea48 083e 3414 463e 4b0c b8bc abb1 92bc
00000350: 40fd fd3c 053b 17be 3c4a 9b3e 0163 39be
00000360: 4b52 863c c6f0 a03e 039d 94be da61 8cbd
00000370: 804c 393e 3fc8 34be 9fb4 17be 634d f83d
00000380: ba41 1abd 4a59 8e3d 94f1 9d3d beb9 e43d
00000390: 427c 9ebe 5fa7 8e3a 09b3 6ebd b6fb f5bd
000003a0: 8f9e 4ebe ad53 133c b338 1f3e 72fd 343e
000003b0: 47d6 1f3e 3655 603e cbf1 0f3d c20d 8abe
000003c0: 5e6b 5cbd 324b b43e c4e1 a13e ca1b 263d
000003d0: c58d 373e 4758 49be 77e5 603d 87fe 513d
000003e0: d6df 2ebd 0deb 1abb 1e2a b6be af7f 92be
000003f0: 54ed 1fbd 6b47 973e 2096 053e 4877 1c3e

conv_seq.1.c1.bias f4 [12]
0.29731202 0.04217981 0.3053457 -0.1113785 0.3925059 -0.2803249 -0.062206678 0.03259524
-0.22584246 0.09051169 -0.1041134 0.05427702
00000000: 4839 983e bdc4 2c3d 4656 9c3e 691a e4bd
00000010: 89f6 c83e bf86 8fbe 6ecc 7ebd 9682 053d
00000020: 3f43 67be 315e b93d 6839 d5bd 9551 5e3d

conv_seq.1.br1.0.weight f4 [12]
0.79438514 0.86507833 0.6490094 0.9766605 0.6095674 0.84481204 0.51132995 0.8824516
0.4462095 0.57572585 0.71951914 0.53003395
00000000: d35c 4b3f c675 5d3f 7b25 263f 6c06 7a3f
00000010: 9c0c 1c3f 9a45 583f 85e6 023f 59e8 613f
00000020: 9275 e43e c562 133f 6832 383f 4eb0 073f

conv_seq.1.br1.0.bias f4 [12]
0.04447562 0.04144761 -0.08577178 0.18943809 -0.0338128 0.20371196 0.1861843 0.12820056
-0.07032495 -0.23151809 -0.009246273 -0.23202652
00000000: 112c 363d f8c4 293d 1da9 afbd 0ffc 413e
00000010: 4a7f 0abd de99 503e 19a7 3e3e 0247 033e
00000020: 8706 90bd 1413 6dbe ae7d 17bc 5c98 6dbe

conv_seq.1.br1.0.running_mean f4 [12]
-0.026067758 0.41512424 0.20778477 0.041161522 -0.0002848647 -0.35861614 -0.16036952 0.03719673
-0.42261305 -0.08915799 -0.31707263 -0.3086104
00000000: 0d8c d5bc 2a8b d43e 88c5 543e fc98 283d
00000010: e559 95b9 899c b7be e837 24be 995b 183d
00000020: bd60 d8be 7798 b6bd 5857 a2be 2f02 9ebe

conv_seq.1.br1.0.running_var f4 [12]
0.67938936 0.3420497 0.23648538 0.86813843 0.455712 0.33999488 0.20961945 0.6295985
0.15103054 0.27308154 0.548931 0.20198542
00000000: 76ec 2d3f 2321 af3e 3929 723e 523e 5e3f
00000010: 1553 e93e cf13 ae3e 7ba6 563e 5e2d 213f
00000020: c0a7 1a3e 58d1 8b3e be86 0c3f 44d5 4e3e
